Model: "sequential_4"
_________________________________________________________________
Layer (type)                 Output Shape              Param #   
=================================================================
conv2d_12 (Conv2D)           (None, 34, 120, 6)        456       
_________________________________________________________________
average_pooling2d_8 (Average (None, 33, 119, 6)        0         
_________________________________________________________________
conv2d_13 (Conv2D)           (None, 29, 115, 16)       2416      
_________________________________________________________________
average_pooling2d_9 (Average (None, 14, 57, 16)        0         
_________________________________________________________________
conv2d_14 (Conv2D)           (None, 10, 53, 120)       48120     
_________________________________________________________________
flatten_4 (Flatten)          (None, 63600)             0         
_________________________________________________________________
dense_8 (Dense)              (None, 84)                5342484   
_________________________________________________________________
dense_9 (Dense)              (None, 12)                1020      
=================================================================
Total params: 5,394,496
Trainable params: 5,394,496
Non-trainable params: 0
_________________________________________________________________
