Model: "sequential_5"
_________________________________________________________________
Layer (type)                 Output Shape              Param #   
=================================================================
conv2d_13 (Conv2D)           (None, 32, 32, 6)         456       
_________________________________________________________________
average_pooling2d_6 (Average (None, 31, 31, 6)         0         
_________________________________________________________________
conv2d_14 (Conv2D)           (None, 27, 27, 16)        2416      
_________________________________________________________________
average_pooling2d_7 (Average (None, 13, 13, 16)        0         
_________________________________________________________________
conv2d_15 (Conv2D)           (None, 9, 9, 120)         48120     
_________________________________________________________________
flatten_5 (Flatten)          (None, 9720)              0         
_________________________________________________________________
dense_10 (Dense)             (None, 84)                816564    
_________________________________________________________________
dense_11 (Dense)             (None, 12)                1020      
=================================================================
Total params: 868,576
Trainable params: 868,576
Non-trainable params: 0
_________________________________________________________________
