Model: "sequential_5"
_________________________________________________________________
Layer (type)                 Output Shape              Param #   
=================================================================
conv2d_15 (Conv2D)           (None, 34, 120, 6)        456       
_________________________________________________________________
average_pooling2d_10 (Averag (None, 33, 119, 6)        0         
_________________________________________________________________
conv2d_16 (Conv2D)           (None, 29, 115, 16)       2416      
_________________________________________________________________
average_pooling2d_11 (Averag (None, 14, 57, 16)        0         
_________________________________________________________________
conv2d_17 (Conv2D)           (None, 10, 53, 120)       48120     
_________________________________________________________________
flatten_5 (Flatten)          (None, 63600)             0         
_________________________________________________________________
dense_10 (Dense)             (None, 84)                5342484   
_________________________________________________________________
dense_11 (Dense)             (None, 12)                1020      
=================================================================
Total params: 5,394,496
Trainable params: 5,394,496
Non-trainable params: 0
_________________________________________________________________
