Model: "sequential_11"
_________________________________________________________________
Layer (type)                 Output Shape              Param #   
=================================================================
conv2d_28 (Conv2D)           (None, 32, 32, 6)         456       
_________________________________________________________________
average_pooling2d_12 (Averag (None, 31, 31, 6)         0         
_________________________________________________________________
conv2d_29 (Conv2D)           (None, 27, 27, 16)        2416      
_________________________________________________________________
average_pooling2d_13 (Averag (None, 13, 13, 16)        0         
_________________________________________________________________
conv2d_30 (Conv2D)           (None, 9, 9, 120)         48120     
_________________________________________________________________
flatten_11 (Flatten)         (None, 9720)              0         
_________________________________________________________________
dense_22 (Dense)             (None, 84)                816564    
_________________________________________________________________
dense_23 (Dense)             (None, 12)                1020      
=================================================================
Total params: 868,576
Trainable params: 868,576
Non-trainable params: 0
_________________________________________________________________
