Model: "sequential_1"
_________________________________________________________________
Layer (type)                 Output Shape              Param #   
=================================================================
conv2d_3 (Conv2D)            (None, 32, 32, 6)         456       
_________________________________________________________________
average_pooling2d_2 (Average (None, 31, 31, 6)         0         
_________________________________________________________________
conv2d_4 (Conv2D)            (None, 27, 27, 16)        2416      
_________________________________________________________________
average_pooling2d_3 (Average (None, 13, 13, 16)        0         
_________________________________________________________________
conv2d_5 (Conv2D)            (None, 9, 9, 120)         48120     
_________________________________________________________________
flatten_1 (Flatten)          (None, 9720)              0         
_________________________________________________________________
dense_2 (Dense)              (None, 84)                816564    
_________________________________________________________________
dense_3 (Dense)              (None, 12)                1020      
=================================================================
Total params: 868,576
Trainable params: 868,576
Non-trainable params: 0
_________________________________________________________________
