Model: "sequential_2"
_________________________________________________________________
Layer (type)                 Output Shape              Param #   
=================================================================
conv2d_6 (Conv2D)            (None, 17, 60, 6)         456       
_________________________________________________________________
average_pooling2d_4 (Average (None, 16, 59, 6)         0         
_________________________________________________________________
conv2d_7 (Conv2D)            (None, 12, 55, 16)        2416      
_________________________________________________________________
average_pooling2d_5 (Average (None, 6, 27, 16)         0         
_________________________________________________________________
conv2d_8 (Conv2D)            (None, 2, 23, 120)        48120     
_________________________________________________________________
flatten_2 (Flatten)          (None, 5520)              0         
_________________________________________________________________
dense_4 (Dense)              (None, 84)                463764    
_________________________________________________________________
dense_5 (Dense)              (None, 12)                1020      
=================================================================
Total params: 515,776
Trainable params: 515,776
Non-trainable params: 0
_________________________________________________________________
