Model: "sequential_2"
_________________________________________________________________
Layer (type)                 Output Shape              Param #   
=================================================================
conv2d_5 (Conv2D)            (None, 64, 64, 6)         456       
_________________________________________________________________
average_pooling2d_2 (Average (None, 63, 63, 6)         0         
_________________________________________________________________
conv2d_6 (Conv2D)            (None, 59, 59, 16)        2416      
_________________________________________________________________
average_pooling2d_3 (Average (None, 29, 29, 16)        0         
_________________________________________________________________
conv2d_7 (Conv2D)            (None, 25, 25, 120)       48120     
_________________________________________________________________
flatten_2 (Flatten)          (None, 75000)             0         
_________________________________________________________________
dense_4 (Dense)              (None, 84)                6300084   
_________________________________________________________________
dense_5 (Dense)              (None, 12)                1020      
=================================================================
Total params: 6,352,096
Trainable params: 6,352,096
Non-trainable params: 0
_________________________________________________________________
