Model: "sequential_4"
_________________________________________________________________
Layer (type)                 Output Shape              Param #   
=================================================================
conv2d_8 (Conv2D)            (None, 57, 57, 32)        6176      
_________________________________________________________________
conv2d_9 (Conv2D)            (None, 56, 56, 128)       16512     
_________________________________________________________________
max_pooling2d_4 (MaxPooling2 (None, 28, 28, 128)       0         
_________________________________________________________________
dropout_8 (Dropout)          (None, 28, 28, 128)       0         
_________________________________________________________________
flatten_4 (Flatten)          (None, 100352)            0         
_________________________________________________________________
dense_8 (Dense)              (None, 64)                6422592   
_________________________________________________________________
dropout_9 (Dropout)          (None, 64)                0         
_________________________________________________________________
dense_9 (Dense)              (None, 12)                780       
=================================================================
Total params: 6,446,060
Trainable params: 6,446,060
Non-trainable params: 0
_________________________________________________________________
