Model: "sequential_1"
_________________________________________________________________
Layer (type)                 Output Shape              Param #   
=================================================================
conv2d_2 (Conv2D)            (None, 25, 25, 32)        6176      
_________________________________________________________________
conv2d_3 (Conv2D)            (None, 24, 24, 128)       16512     
_________________________________________________________________
max_pooling2d_1 (MaxPooling2 (None, 12, 12, 128)       0         
_________________________________________________________________
dropout_2 (Dropout)          (None, 12, 12, 128)       0         
_________________________________________________________________
flatten_1 (Flatten)          (None, 18432)             0         
_________________________________________________________________
dense_2 (Dense)              (None, 64)                1179712   
_________________________________________________________________
dropout_3 (Dropout)          (None, 64)                0         
_________________________________________________________________
dense_3 (Dense)              (None, 12)                780       
=================================================================
Total params: 1,203,180
Trainable params: 1,203,180
Non-trainable params: 0
_________________________________________________________________
