Model: "sequential_7"
_________________________________________________________________
Layer (type)                 Output Shape              Param #   
=================================================================
conv2d_14 (Conv2D)           (None, 10, 53, 32)        6176      
_________________________________________________________________
conv2d_15 (Conv2D)           (None, 9, 52, 128)        16512     
_________________________________________________________________
max_pooling2d_7 (MaxPooling2 (None, 4, 26, 128)        0         
_________________________________________________________________
dropout_14 (Dropout)         (None, 4, 26, 128)        0         
_________________________________________________________________
flatten_7 (Flatten)          (None, 13312)             0         
_________________________________________________________________
dense_14 (Dense)             (None, 64)                852032    
_________________________________________________________________
dropout_15 (Dropout)         (None, 64)                0         
_________________________________________________________________
dense_15 (Dense)             (None, 12)                780       
=================================================================
Total params: 875,500
Trainable params: 875,500
Non-trainable params: 0
_________________________________________________________________
