Model: "sequential_6"
_________________________________________________________________
Layer (type)                 Output Shape              Param #   
=================================================================
conv2d_12 (Conv2D)           (None, 10, 53, 32)        6176      
_________________________________________________________________
conv2d_13 (Conv2D)           (None, 9, 52, 128)        16512     
_________________________________________________________________
max_pooling2d_6 (MaxPooling2 (None, 4, 26, 128)        0         
_________________________________________________________________
dropout_12 (Dropout)         (None, 4, 26, 128)        0         
_________________________________________________________________
flatten_6 (Flatten)          (None, 13312)             0         
_________________________________________________________________
dense_12 (Dense)             (None, 64)                852032    
_________________________________________________________________
dropout_13 (Dropout)         (None, 64)                0         
_________________________________________________________________
dense_13 (Dense)             (None, 12)                780       
=================================================================
Total params: 875,500
Trainable params: 875,500
Non-trainable params: 0
_________________________________________________________________
