Model: "sequential"
_________________________________________________________________
Layer (type)                 Output Shape              Param #   
=================================================================
conv2d (Conv2D)              (None, 25, 25, 32)        6176      
_________________________________________________________________
conv2d_1 (Conv2D)            (None, 24, 24, 128)       16512     
_________________________________________________________________
max_pooling2d (MaxPooling2D) (None, 12, 12, 128)       0         
_________________________________________________________________
dropout (Dropout)            (None, 12, 12, 128)       0         
_________________________________________________________________
flatten (Flatten)            (None, 18432)             0         
_________________________________________________________________
dense (Dense)                (None, 64)                1179712   
_________________________________________________________________
dropout_1 (Dropout)          (None, 64)                0         
_________________________________________________________________
dense_1 (Dense)              (None, 12)                780       
=================================================================
Total params: 1,203,180
Trainable params: 1,203,180
Non-trainable params: 0
_________________________________________________________________
