Model: "sequential_24"
_________________________________________________________________
Layer (type)                 Output Shape              Param #   
=================================================================
conv2d_61 (Conv2D)           (None, 25, 25, 32)        6176      
_________________________________________________________________
conv2d_62 (Conv2D)           (None, 24, 24, 128)       16512     
_________________________________________________________________
max_pooling2d_11 (MaxPooling (None, 12, 12, 128)       0         
_________________________________________________________________
dropout_22 (Dropout)         (None, 12, 12, 128)       0         
_________________________________________________________________
flatten_24 (Flatten)         (None, 18432)             0         
_________________________________________________________________
dense_48 (Dense)             (None, 64)                1179712   
_________________________________________________________________
dropout_23 (Dropout)         (None, 64)                0         
_________________________________________________________________
dense_49 (Dense)             (None, 12)                780       
=================================================================
Total params: 1,203,180
Trainable params: 1,203,180
Non-trainable params: 0
_________________________________________________________________
