Model: "sequential_5"
_________________________________________________________________
Layer (type)                 Output Shape              Param #   
=================================================================
conv2d_10 (Conv2D)           (None, 57, 57, 32)        6176      
_________________________________________________________________
conv2d_11 (Conv2D)           (None, 56, 56, 128)       16512     
_________________________________________________________________
max_pooling2d_5 (MaxPooling2 (None, 28, 28, 128)       0         
_________________________________________________________________
dropout_10 (Dropout)         (None, 28, 28, 128)       0         
_________________________________________________________________
flatten_5 (Flatten)          (None, 100352)            0         
_________________________________________________________________
dense_10 (Dense)             (None, 64)                6422592   
_________________________________________________________________
dropout_11 (Dropout)         (None, 64)                0         
_________________________________________________________________
dense_11 (Dense)             (None, 12)                780       
=================================================================
Total params: 6,446,060
Trainable params: 6,446,060
Non-trainable params: 0
_________________________________________________________________
