Model: "sequential_1"
_________________________________________________________________
Layer (type)                 Output Shape              Param #   
=================================================================
conv2d_3 (Conv2D)            (None, 57, 57, 32)        6176      
_________________________________________________________________
conv2d_4 (Conv2D)            (None, 56, 56, 128)       16512     
_________________________________________________________________
max_pooling2d (MaxPooling2D) (None, 28, 28, 128)       0         
_________________________________________________________________
dropout (Dropout)            (None, 28, 28, 128)       0         
_________________________________________________________________
flatten_1 (Flatten)          (None, 100352)            0         
_________________________________________________________________
dense_2 (Dense)              (None, 64)                6422592   
_________________________________________________________________
dropout_1 (Dropout)          (None, 64)                0         
_________________________________________________________________
dense_3 (Dense)              (None, 12)                780       
=================================================================
Total params: 6,446,060
Trainable params: 6,446,060
Non-trainable params: 0
_________________________________________________________________
