Model: "sequential_11"
_________________________________________________________________
Layer (type)                 Output Shape              Param #   
=================================================================
conv2d_22 (Conv2D)           (None, 27, 113, 32)       6176      
_________________________________________________________________
conv2d_23 (Conv2D)           (None, 26, 112, 128)      16512     
_________________________________________________________________
max_pooling2d_11 (MaxPooling (None, 13, 56, 128)       0         
_________________________________________________________________
dropout_22 (Dropout)         (None, 13, 56, 128)       0         
_________________________________________________________________
flatten_11 (Flatten)         (None, 93184)             0         
_________________________________________________________________
dense_22 (Dense)             (None, 64)                5963840   
_________________________________________________________________
dropout_23 (Dropout)         (None, 64)                0         
_________________________________________________________________
dense_23 (Dense)             (None, 12)                780       
=================================================================
Total params: 5,987,308
Trainable params: 5,987,308
Non-trainable params: 0
_________________________________________________________________
