Model: "sequential_20"
_________________________________________________________________
Layer (type)                 Output Shape              Param #   
=================================================================
conv2d_51 (Conv2D)           (None, 25, 25, 32)        6176      
_________________________________________________________________
conv2d_52 (Conv2D)           (None, 24, 24, 128)       16512     
_________________________________________________________________
max_pooling2d_9 (MaxPooling2 (None, 12, 12, 128)       0         
_________________________________________________________________
dropout_18 (Dropout)         (None, 12, 12, 128)       0         
_________________________________________________________________
flatten_20 (Flatten)         (None, 18432)             0         
_________________________________________________________________
dense_40 (Dense)             (None, 64)                1179712   
_________________________________________________________________
dropout_19 (Dropout)         (None, 64)                0         
_________________________________________________________________
dense_41 (Dense)             (None, 12)                780       
=================================================================
Total params: 1,203,180
Trainable params: 1,203,180
Non-trainable params: 0
_________________________________________________________________
