Model: "sequential_16"
_________________________________________________________________
Layer (type)                 Output Shape              Param #   
=================================================================
conv2d_41 (Conv2D)           (None, 25, 25, 32)        6176      
_________________________________________________________________
conv2d_42 (Conv2D)           (None, 24, 24, 128)       16512     
_________________________________________________________________
max_pooling2d_7 (MaxPooling2 (None, 12, 12, 128)       0         
_________________________________________________________________
dropout_14 (Dropout)         (None, 12, 12, 128)       0         
_________________________________________________________________
flatten_16 (Flatten)         (None, 18432)             0         
_________________________________________________________________
dense_32 (Dense)             (None, 64)                1179712   
_________________________________________________________________
dropout_15 (Dropout)         (None, 64)                0         
_________________________________________________________________
dense_33 (Dense)             (None, 12)                780       
=================================================================
Total params: 1,203,180
Trainable params: 1,203,180
Non-trainable params: 0
_________________________________________________________________
