Model: "sequential_9"
_________________________________________________________________
Layer (type)                 Output Shape              Param #   
=================================================================
conv2d_18 (Conv2D)           (None, 27, 113, 32)       6176      
_________________________________________________________________
conv2d_19 (Conv2D)           (None, 26, 112, 128)      16512     
_________________________________________________________________
max_pooling2d_9 (MaxPooling2 (None, 13, 56, 128)       0         
_________________________________________________________________
dropout_18 (Dropout)         (None, 13, 56, 128)       0         
_________________________________________________________________
flatten_9 (Flatten)          (None, 93184)             0         
_________________________________________________________________
dense_18 (Dense)             (None, 64)                5963840   
_________________________________________________________________
dropout_19 (Dropout)         (None, 64)                0         
_________________________________________________________________
dense_19 (Dense)             (None, 12)                780       
=================================================================
Total params: 5,987,308
Trainable params: 5,987,308
Non-trainable params: 0
_________________________________________________________________
